…
          "base_uri": "https://localhost:8080/"
        },
        "outputId": "7d4a36eb-362e-4450-9a49-21174e665bb5"
      },
      "source": [
        "model.summary()"
      ],
      "execution_count": null,
      "outputs": [
        {
          "output_type": "stream",
          "text": [
            "Model: \"sequential_8\"\n",
            "_________________________________________________________________\n",
            "Layer (type)                 Output Shape              Param #   \n",
            "=================================================================\n",
            "conv2d_13 (Conv2D)           (None, 26, 26, 32)        320       \n",
            "_________________________________________________________________\n",
            "max_pooling2d_9 (MaxPooling2 (None, 13, 13, 32)        0         \n",
            "_________________________________________________________________\n",
            "conv2d_14 (Conv2D)           (None, 11, 11, 64)        18496     \n",
            "_________________________________________________________________\n",
            "max_pooling2d_10 (MaxPooling (None, 5, 5, 64)          0         \n",
            "_________________________________________________________________\n",
            "conv2d_15 (Conv2D)           (None, 3, 3, 128)         73856     \n",
            "_________________________________________________________________\n",
            "flatten_5 (Flatten)          (None, 1152)              0         \n",
            "_________________________________________________________________\n",
            "dense_8 (Dense)              (None, 128)               147584    \n",
            "_________________________________________________________________\n",
            "dense_9 (Dense)              (None, 10)                1290      \n",
            "=================================================================\n",
            "Total params: 241,546\n",
            "Trainable params: 241,546\n",
            "Non-trainable params: 0\n",
            "_________________________________________________________________\n"
          ],
          "name": "stdout"
        }
      ]
    },
    {
      "cell_type": "code",
      "metadata": {
…
          "base_uri": "https://localhost:8080/"
        },
        "outputId": "99da024b-7ac9-4bde-f2c2-dc08aa22ea9c"
      },
      "source": [
        "model.summary()"
      ],
      "execution_count": null,
      "outputs": [
        {
          "output_type": "stream",
          "text": [
            "Model: \"sequential_11\"\n",
            "_________________________________________________________________\n",
            "Layer (type)                 Output Shape              Param #   \n",
            "=================================================================\n",
            "conv2d_19 (Conv2D)           (None, 26, 26, 32)        320       \n",
            "_________________________________________________________________\n",
            "max_pooling2d_13 (MaxPooling (None, 13, 13, 32)        0         \n",
            "_________________________________________________________________\n",
            "dropout_14 (Dropout)         (None, 13, 13, 32)        0         \n",
            "_________________________________________________________________\n",
            "conv2d_20 (Conv2D)           (None, 11, 11, 64)        18496     \n",
            "_________________________________________________________________\n",
            "max_pooling2d_14 (MaxPooling (None, 5, 5, 64)          0         \n",
            "_________________________________________________________________\n",
            "dropout_15 (Dropout)         (None, 5, 5, 64)          0         \n",
            "_________________________________________________________________\n",
            "conv2d_21 (Conv2D)           (None, 3, 3, 128)         73856     \n",
            "_________________________________________________________________\n",
            "dropout_16 (Dropout)         (None, 3, 3, 128)         0         \n",
            "_________________________________________________________________\n",
            "flatten_7 (Flatten)          (None, 1152)              0         \n",
            "_________________________________________________________________\n",
            "dense_11 (Dense)             (None, 128)               147584    \n",
            "_________________________________________________________________\n",
            "dropout_17 (Dropout)         (None, 128)               0         \n",
            "_________________________________________________________________\n",
            "dense_12 (Dense)             (None, 10)                1290      \n",
            "=================================================================\n",
            "Total params: 241,546\n",
            "Trainable params: 241,546\n",
            "Non-trainable params: 0\n",
            "_________________________________________________________________\n"
          ],
          "name": "stdout"
        }
      ]
    },
    {
      "cell_type": "code",
      "metadata": {
…
